GRPO_Project_Iteration/BlackJack/app/model_weights/blackjack_policy_model.pth (torch, 2931 bytes, 4 tensors)

layer_1.weight f4 [10, 3]
-0.4086235 0.72970307 0.35546547 -0.56103516 0.20029408 0.47792482 0.27542698 0.11420271
0.84875244 0.69363916 0.6211864 -1.0866445 -0.31285092 0.58105403 2.2623372 -0.19617233
0.51827914 2.2837079 -0.6129003 1.4658793 2.6452985 0.41096073 0.6132739 -1.151848
-0.03667146 -0.5432213 -0.20454061 -0.64325625 0.93185097 1.3498412
00000000: 1937 d1be d2cd 3a3f 92ff b53e 00a0 0fbf
00000010: e419 4d3e 90b2 f43e c404 8d3e 1ce3 e93d
00000020: d747 593f 5692 313f 1206 1f3f 2b17 8bbf
00000030: ff2d a0be f5bf 143f 22ca 1040 66e1 48be
00000040: f1ad 043f 4528 1240 09e7 1cbf efa1 bb3f
00000050: 924c 2940 7269 d23e 85ff 1c3f c16f 93bf
00000060: d034 16bd 8d10 0bbf 1873 51be 71ac 24bf
00000070: c98d 6e3f 99c7 ac3f

layer_1.bias f4 [10]
-0.2548928 -0.36682576 4.2117167 -4.217851 0.528321 -1.0466757 1.8258961 -4.620466
0.2526124 0.7012358
00000000: 4f81 82be 96d0 bbbe 62c6 8640 a3f8 86c0
00000010: 0c40 073f 78f9 85bf f7b6 e93f dcda 93c0
00000020: 6a56 813e 3084 333f

layer_2.weight f4 [2, 10]
2.3196068 -0.11629802 -0.944814 1.1046232 1.4432703 1.7220296 -3.079241 2.1555593
-0.0590986 1.6483549 -2.1925466 -0.19726832 1.1776184 -1.0842137 -0.9744173 -1.9178963
3.310915 -2.1732502 -0.22126509 -1.6041911
00000000: 7074 1440 a82d eebd 55df 71bf 4b64 8d3f
00000010: 15bd b83f 776b dc3f 4912 45c0 aff4 0940
00000020: 6011 72bd 4bfd d23f af52 0cc0 b500 4abe
00000030: 33bc 963f 84c7 8abf 6a73 79bf a07d f5bf
00000040: 08e6 5340 8816 0bc0 5193 62be 2256 cdbf

layer_2.bias f4 [2]
-3.9989378 4.2474008
00000000: 99ee 7fc0 b5ea 8740
